…
Train/Dev/Test splits loaded! |TRAIN|: 80,000, |DEV|: 150, |TEST|: 166
Train/Dev/Test splits loaded! Elapsed Time: 3.12s (0.05 minute)

Performing initial evaluation for VALIDATION set..
[Initial] [Dev]  MSE: 18.56397, MAE: 4.18031

Performing initial evaluation for TESTING set..
[Initial] [Test] MSE: 19.30633, MAE: 4.27780

Initial Evaluation Complete.. Elapsed Time: 3.29s (0.05 minute)

Parameters with L2 Regularization (Regularization Strength: 1e-06):
VANRA_RatingPred.uid_userOffset.weight, VANRA_RatingPred.iid_itemOffset.weight

Optimizer: Adam, Loss Function: MSELoss

Model Size: 158,549,693
# of Trainable Parameters: 8,262,993
VANRA (
  (uid_userDoc): Embedding(77930, 500), weights = ((77930, 500),), parameters = 38,965,000
  (iid_itemDoc): Embedding(59172, 500), weights = ((59172, 500),), parameters = 29,586,000
  (wid_wEmbed): Embedding(43949, 300), weights = ((43949, 300),), parameters = 13,184,700
  (uid_userVis): Embedding(77930, 500), weights = ((77930, 500),), parameters = 38,965,000
  (iid_itemVis): Embedding(59172, 500), weights = ((59172, 500),), parameters = 29,586,000
  (shared_ANR_ARL): ANR_ARL(
    (aspEmbed): Embedding(5, 30)
    (aspProj): Parameter(5, 300, 10)
  ), weights = ((5, 300, 10), (5, 30)), parameters = 15,150 (Trainable)
  (ANR_AIE): ANR_AIE(  (W_a): Parameter(10, 10)
    (W_u): Parameter(50, 10)
    (w_hu): Parameter(50, 1)
    (W_i): Parameter(50, 10)
    (w_hi): Parameter(50, 1)
  ), weights = ((10, 10), (50, 10), (50, 1), (50, 10), (50, 1)), parameters = 1,200 (Trainable)
  (VANRA_VRL): VANRA_VRL(
    (localAttentionLayer_user): LocalAttention(
      (attention_layer): Sequential(
        (0): Conv2d(1, 1, kernel_size=(3, 1), stride=(1, 1))
        (1): Softmax(dim=2)
      )
      (cnn): Sequential(
        (0): Conv2d(1, 10, kernel_size=(1, 1), stride=(1, 1))
        (1): Tanh()
      )
      (fcLayer): Sequential(
        (0): Linear(in_features=5000, out_features=200, bias=True)
        (1): Dropout(p=0.9, inplace=False)
        (2): ReLU()
        (3): Linear(in_features=200, out_features=50, bias=True)
      )
    )
    (globalAttentionLayer_user): GlobalAttention(
      (attention_layer): Sequential(
        (0): Conv2d(1, 1, kernel_size=(500, 1), stride=(1, 1))
        (1): Sigmoid()
      )
      (cnn_1): Sequential(
        (0): Conv2d(1, 10, kernel_size=(2, 1), stride=(1, 1))
        (1): Tanh()
      )
      (fcLayer1): Sequential(
        (0): Linear(in_features=4990, out_features=200, bias=True)
        (1): Dropout(p=0.9, inplace=False)
        (2): ReLU()
        (3): Linear(in_features=200, out_features=50, bias=True)
      )
      (cnn_2): Sequential(
        (0): Conv2d(1, 10, kernel_size=(3, 1), stride=(1, 1))
        (1): Tanh()
      )
      (fcLayer2): Sequential(
        (0): Linear(in_features=4980, out_features=200, bias=True)
        (1): Dropout(p=0.9, inplace=False)
        (2): ReLU()
        (3): Linear(in_features=200, out_features=50, bias=True)
      )
      (cnn_3): Sequential(
        (0): Conv2d(1, 10, kernel_size=(4, 1), stride=(1, 1))
        (1): Tanh()
      )
      (fcLayer3): Sequential(
        (0): Linear(in_features=4970, out_features=200, bias=True)
        (1): Dropout(p=0.9, inplace=False)
        (2): ReLU()
        (3): Linear(in_features=200, out_features=50, bias=True)
      )
    )
    (localAttentionLayer_item): LocalAttention(
      (attention_layer): Sequential(
        (0): Conv2d(1, 1, kernel_size=(3, 1), stride=(1, 1))
        (1): Softmax(dim=2)
      )
      (cnn): Sequential(
        (0): Conv2d(1, 10, kernel_size=(1, 1), stride=(1, 1))
        (1): Tanh()
      )
      (fcLayer): Sequential(
        (0): Linear(in_features=5000, out_features=200, bias=True)
        (1): Dropout(p=0.9, inplace=False)
        (2): ReLU()
        (3): Linear(in_features=200, out_features=50, bias=True)
      )
    )
    (globalAttentionLayer_item): GlobalAttention(
      (attention_layer): Sequential(
        (0): Conv2d(1, 1, kernel_size=(500, 1), stride=(1, 1))
        (1): Sigmoid()
      )
      (cnn_1): Sequential(
        (0): Conv2d(1, 10, kernel_size=(2, 1), stride=(1, 1))
        (1): Tanh()
      )
      (fcLayer1): Sequential(
        (0): Linear(in_features=4990, out_features=200, bias=True)
        (1): Dropout(p=0.9, inplace=False)
        (2): ReLU()
        (3): Linear(in_features=200, out_features=50, bias=True)
      )
      (cnn_2): Sequential(
        (0): Conv2d(1, 10, kernel_size=(3, 1), stride=(1, 1))
        (1): Tanh()
      )
      (fcLayer2): Sequential(
        (0): Linear(in_features=4980, out_features=200, bias=True)
        (1): Dropout(p=0.9, inplace=False)
        (2): ReLU()
        (3): Linear(in_features=200, out_features=50, bias=True)
      )
      (cnn_3): Sequential(
        (0): Conv2d(1, 10, kernel_size=(4, 1), stride=(1, 1))
        (1): Tanh()
      )
      (fcLayer3): Sequential(
        (0): Linear(in_features=4970, out_features=200, bias=True)
        (1): Dropout(p=0.9, inplace=False)
        (2): ReLU()
        (3): Linear(in_features=200, out_features=50, bias=True)
      )
    )
    (fcLayer): Sequential(
      (0): Linear(in_features=200, out_features=200, bias=True)
      (1): ReLU()
      (2): Linear(in_features=200, out_features=50, bias=True)
    )
  ), weights = ((1, 1, 3, 1), (1,), (10, 1, 1, 1), (10,), (200, 5000), (200,), (50, 200), (50,), (1, 1, 500, 1), (1,), (10, 1, 2, 1), (10,), (200, 4990), (200,), (50, 200), (50,), (10, 1, 3, 1), (10,), (200, 4980), (200,), (50, 200), (50,), (10, 1, 4, 1), (10,), (200, 4970), (200,), (50, 200), (50,), (1, 1, 3, 1), (1,), (10, 1, 1, 1), (10,), (200, 5000), (200,), (50, 200), (50,), (1, 1, 500, 1), (1,), (10, 1, 2, 1), (10,), (200, 4990), (200,), (50, 200), (50,), (10, 1, 3, 1), (10,), (200, 4980), (200,), (50, 200), (50,), (10, 1, 4, 1), (10,), (200, 4970), (200,), (50, 200), (50,), (200, 200), (200,), (50, 200), (50,)), parameters = 8,109,540 (Trainable)
  (VANRA_RatingPred): VANRA_RatingPred(
    (userAspRepDropout): Dropout(p=0.9, inplace=False)
    (itemAspRepDropout): Dropout(p=0.9, inplace=False)
    (uid_userOffset): Embedding(77930, 1)
    (iid_itemOffset): Embedding(59172, 1)
    (globalOffset): Parameter(1,)
  ), weights = ((1,), (77930, 1), (59172, 1)), parameters = 137,103 (Trainable)
)
========================================================================================================================

[Epoch 1/10] Training Loss: 5.41406	Elapsed Time: 31.58s (0:00:31)
[Epoch 1] [Dev]  MSE: 10.62296, MAE: 3.09700
[Epoch 1] [Test] MSE: 11.24482, MAE: 3.20706
…
