…
Train/Dev/Test splits loaded! |TRAIN|: 800,000, |DEV|: 20,828, |TEST|: 21,246
Train/Dev/Test splits loaded! Elapsed Time: 82.30s (1.37 minutes)

Performing initial evaluation for VALIDATION set..
[Initial] [Dev]  MSE: 13.35703, MAE: 3.37666

Performing initial evaluation for TESTING set..
[Initial] [Test] MSE: 13.42783, MAE: 3.39478

Initial Evaluation Complete.. Elapsed Time: 90.22s (1.50 minutes)

Parameters with L2 Regularization (Regularization Strength: 1e-06):
VANRA_RatingPred.uid_userOffset.weight, VANRA_RatingPred.iid_itemOffset.weight

Optimizer: Adam, Loss Function: MSELoss

Model Size: 1,027,802,204
# of Trainable Parameters: 1,058,604
VANRA (
  (uid_userDoc): Embedding(621433, 500), weights = ((621433, 500),), parameters = 310,716,500
  (iid_itemDoc): Embedding(390310, 500), weights = ((390310, 500),), parameters = 195,155,000
  (wid_wEmbed): Embedding(50002, 300), weights = ((50002, 300),), parameters = 15,000,600
  (uid_userVis): Embedding(621433, 500), weights = ((621433, 500),), parameters = 310,716,500
  (iid_itemVis): Embedding(390310, 500), weights = ((390310, 500),), parameters = 195,155,000
  (MSANR_ARL): MSANR_ARL(
    (aspEmbed): ModuleList(
      (0): Embedding(5, 30)
      (1): Embedding(5, 50)
      (2): Embedding(5, 70)
    )
    (filterEmbed): Embedding(5, 10)
    (aspProj): Parameter(5, 300, 10)
  ), weights = ((5, 300, 10), (5, 30), (5, 50), (5, 70), (5, 10)), parameters = 15,800 (Trainable)
  (VANRA_VRL): VANRA_VRL(
    (fcLayer): Sequential(
      (0): Dropout(p=0.9, inplace=False)
      (1): Linear(in_features=500, out_features=50, bias=True)
    )
    (visProj): Parameter(500, 10)
  ), weights = ((500, 10), (50, 500), (50,)), parameters = 30,050 (Trainable)
  (VANRA_RatingPred): VANRA_RatingPred(
    (uid_userOffset): Embedding(621433, 1)
    (iid_itemOffset): Embedding(390310, 1)
    (fcLayer1): Sequential(
      (0): Linear(in_features=100, out_features=10, bias=True)
      (1): ReLU()
      (2): Dropout(p=0.9, inplace=False)
    )
    (globalOffset): Parameter(1,)
  ), weights = ((1,), (621433, 1), (390310, 1), (10, 100), (10,)), parameters = 1,012,754 (Trainable)
)
========================================================================================================================

[Epoch 1/10] Training Loss: 159.89277	Elapsed Time: 413.23s (0:06:53)
…
