…
Pretrained word embeddings loaded! [wid_wEmbed: (43949, 300)]

Initialization Complete.. Elapsed Time: 2.14s (0.04 minute)

Train/Dev/Test splits loaded! |TRAIN|: 80,000, |DEV|: 150, |TEST|: 166
Train/Dev/Test splits loaded! Elapsed Time: 2.16s (0.04 minute)

Performing initial evaluation for VALIDATION set..
[Initial] [Dev]  MSE: 17.44734, MAE: 4.04454

Performing initial evaluation for TESTING set..
[Initial] [Test] MSE: 18.16191, MAE: 4.14189

Initial Evaluation Complete.. Elapsed Time: 2.49s (0.04 minute)

Optimizer: Adam, Loss Function: MSELoss

Model Size: 81,894,849
# of Trainable Parameters: 159,149
DenseCNN (
  (uid_userDoc): Embedding(77930, 500), weights = ((77930, 500),), parameters = 38,965,000
  (iid_itemDoc): Embedding(59172, 500), weights = ((59172, 500),), parameters = 29,586,000
  (wid_wEmbed): Embedding(43949, 300), weights = ((43949, 300),), parameters = 13,184,700
  (user_net): DenseNet(
    (attention_layer_conv0): Sequential(
      (0): Conv2d(8, 8, kernel_size=(1, 50), stride=(1, 1), groups=8)
      (1): Softmax(dim=2)
    )
    (attention_layer_conv1): Sequential(
      (0): Conv2d(8, 8, kernel_size=(1, 50), stride=(1, 1), groups=8)
      (1): Softmax(dim=2)
    )
    (attention_layer_conv2): Sequential(
      (0): Conv2d(8, 8, kernel_size=(1, 50), stride=(1, 1), groups=8)
      (1): Softmax(dim=2)
    )
    (attention_layer_conv3): Sequential(
      (0): Conv2d(8, 8, kernel_size=(1, 50), stride=(1, 1), groups=8)
      (1): Softmax(dim=2)
    )
    (attention_layer_conv4): Sequential(
      (0): Conv2d(8, 8, kernel_size=(1, 50), stride=(1, 1), groups=8)
      (1): Softmax(dim=2)
    )
    (dense_layer_conv0): Sequential(
      (0): Conv2d(1, 8, kernel_size=(1, 1), stride=(1, 1))
      (1): BatchNorm2d(8, eps=1e-05, momentum=0.1, affine=True, track_running_stats=True)
      (2): ReLU()
    )
    (dense_layer_conv1): Sequential(
      (0): ZeroPad2d(padding=(0, 0, 0, 1), value=0.0)
      (1): Conv2d(8, 8, kernel_size=(2, 1), stride=(1, 1))
      (2): BatchNorm2d(8, eps=1e-05, momentum=0.1, affine=True, track_running_stats=True)
      (3): ReLU()
    )
    (dense_layer_conv2): Sequential(
      (0): ZeroPad2d(padding=(0, 0, 0, 1), value=0.0)
      (1): Conv2d(16, 8, kernel_size=(2, 1), stride=(1, 1))
      (2): BatchNorm2d(8, eps=1e-05, momentum=0.1, affine=True, track_running_stats=True)
      (3): ReLU()
    )
    (dense_layer_conv3): Sequential(
      (0): ZeroPad2d(padding=(0, 0, 0, 1), value=0.0)
      (1): Conv2d(16, 8, kernel_size=(2, 1), stride=(1, 1))
      (2): BatchNorm2d(8, eps=1e-05, momentum=0.1, affine=True, track_running_stats=True)
      (3): ReLU()
    )
    (dense_layer_conv4): Sequential(
      (0): ZeroPad2d(padding=(0, 0, 0, 1), value=0.0)
      (1): Conv2d(16, 8, kernel_size=(2, 1), stride=(1, 1))
      (2): BatchNorm2d(8, eps=1e-05, momentum=0.1, affine=True, track_running_stats=True)
      (3): ReLU()
    )
    (scale_attention): Sequential(
      (0): Conv2d(8, 8, kernel_size=(50, 1), stride=(1, 1), groups=8)
      (1): Softmax(dim=3)
    )
    (filter_attention): Sequential(
      (0): Conv2d(1, 1, kernel_size=(1, 50), stride=(1, 1))
      (1): Softmax(dim=2)
    )
    (dropout): Dropout(p=0.9, inplace=False)
  ), weights = ((8, 1, 1, 50), (8,), (8, 1, 1, 50), (8,), (8, 1, 1, 50), (8,), (8, 1, 1, 50), (8,), (8, 1, 1, 50), (8,), (8, 1, 1, 1), (8,), (8,), (8,), (8, 8, 2, 1), (8,), (8,), (8,), (8, 16, 2, 1), (8,), (8,), (8,), (8, 16, 2, 1), (8,), (8,), (8,), (8, 16, 2, 1), (8,), (8,), (8,), (8, 1, 50, 1), (8,), (1, 1, 1, 50), (1,)), parameters = 3,523 (Trainable)
  (item_net): DenseNet(
    (attention_layer_conv0): Sequential(
      (0): Conv2d(8, 8, kernel_size=(1, 50), stride=(1, 1), groups=8)
      (1): Softmax(dim=2)
    )
    (attention_layer_conv1): Sequential(
      (0): Conv2d(8, 8, kernel_size=(1, 50), stride=(1, 1), groups=8)
      (1): Softmax(dim=2)
    )
    (attention_layer_conv2): Sequential(
      (0): Conv2d(8, 8, kernel_size=(1, 50), stride=(1, 1), groups=8)
      (1): Softmax(dim=2)
    )
    (attention_layer_conv3): Sequential(
      (0): Conv2d(8, 8, kernel_size=(1, 50), stride=(1, 1), groups=8)
      (1): Softmax(dim=2)
    )
    (attention_layer_conv4): Sequential(
      (0): Conv2d(8, 8, kernel_size=(1, 50), stride=(1, 1), groups=8)
      (1): Softmax(dim=2)
    )
    (dense_layer_conv0): Sequential(
      (0): Conv2d(1, 8, kernel_size=(1, 1), stride=(1, 1))
      (1): BatchNorm2d(8, eps=1e-05, momentum=0.1, affine=True, track_running_stats=True)
      (2): ReLU()
    )
    (dense_layer_conv1): Sequential(
      (0): ZeroPad2d(padding=(0, 0, 0, 1), value=0.0)
      (1): Conv2d(8, 8, kernel_size=(2, 1), stride=(1, 1))
      (2): BatchNorm2d(8, eps=1e-05, momentum=0.1, affine=True, track_running_stats=True)
      (3): ReLU()
    )
    (dense_layer_conv2): Sequential(
      (0): ZeroPad2d(padding=(0, 0, 0, 1), value=0.0)
      (1): Conv2d(16, 8, kernel_size=(2, 1), stride=(1, 1))
      (2): BatchNorm2d(8, eps=1e-05, momentum=0.1, affine=True, track_running_stats=True)
      (3): ReLU()
    )
    (dense_layer_conv3): Sequential(
      (0): ZeroPad2d(padding=(0, 0, 0, 1), value=0.0)
      (1): Conv2d(16, 8, kernel_size=(2, 1), stride=(1, 1))
      (2): BatchNorm2d(8, eps=1e-05, momentum=0.1, affine=True, track_running_stats=True)
      (3): ReLU()
    )
    (dense_layer_conv4): Sequential(
      (0): ZeroPad2d(padding=(0, 0, 0, 1), value=0.0)
      (1): Conv2d(16, 8, kernel_size=(2, 1), stride=(1, 1))
      (2): BatchNorm2d(8, eps=1e-05, momentum=0.1, affine=True, track_running_stats=True)
      (3): ReLU()
    )
    (scale_attention): Sequential(
      (0): Conv2d(8, 8, kernel_size=(50, 1), stride=(1, 1), groups=8)
      (1): Softmax(dim=3)
    )
    (filter_attention): Sequential(
      (0): Conv2d(1, 1, kernel_size=(1, 50), stride=(1, 1))
      (1): Softmax(dim=2)
    )
    (dropout): Dropout(p=0.9, inplace=False)
  ), weights = ((8, 1, 1, 50), (8,), (8, 1, 1, 50), (8,), (8, 1, 1, 50), (8,), (8, 1, 1, 50), (8,), (8, 1, 1, 50), (8,), (8, 1, 1, 1), (8,), (8,), (8,), (8, 8, 2, 1), (8,), (8,), (8,), (8, 16, 2, 1), (8,), (8,), (8,), (8, 16, 2, 1), (8,), (8,), (8,), (8, 16, 2, 1), (8,), (8,), (8,), (8, 1, 50, 1), (8,), (1, 1, 1, 50), (1,)), parameters = 3,523 (Trainable)
  (DenseCNN_RatingPred): DenseCNN_RatingPred(
    (uid_userOffset): Embedding(77930, 1)
    (iid_itemOffset): Embedding(59172, 1)
    (globalOffset): Parameter(1,)
  ), weights = ((1,), (77930, 1), (59172, 1)), parameters = 137,103 (Trainable)
)
========================================================================================================================

[Epoch 1/10] Training Loss: 19523.72801	Elapsed Time: 229.46s (0:03:49)
[Epoch 1] [Dev]  MSE: 16.03752, MAE: 3.86382
[Epoch 1] [Test] MSE: 16.80778, MAE: 3.97031
…
