…
Pretrained word embeddings loaded! [wid_wEmbed: (43949, 300)]

Initialization Complete.. Elapsed Time: 4.11s (0.07 minute)

Train/Dev/Test splits loaded! |TRAIN|: 80,000, |DEV|: 150, |TEST|: 166
Train/Dev/Test splits loaded! Elapsed Time: 4.16s (0.07 minute)

Performing initial evaluation for VALIDATION set..
[Initial] [Dev]  MSE: 19.12837, MAE: 4.24727

Performing initial evaluation for TESTING set..
[Initial] [Test] MSE: 19.88240, MAE: 4.34462

Initial Evaluation Complete.. Elapsed Time: 4.64s (0.08 minute)

Optimizer: Adam, Loss Function: MSELoss

Model Size: 332,537,105
# of Trainable Parameters: 250,801,405
DenseCNN (
  (uid_userDoc): Embedding(77930, 500), weights = ((77930, 500),), parameters = 38,965,000
  (iid_itemDoc): Embedding(59172, 500), weights = ((59172, 500),), parameters = 29,586,000
  (wid_wEmbed): Embedding(43949, 300), weights = ((43949, 300),), parameters = 13,184,700
  (user_net): DenseNet(
    (dense_layer_conv0): Conv2d(1, 100, kernel_size=(1, 50), stride=(1, 1))
    (dense_layer_conv1): Sequential(
      (0): ZeroPad2d(padding=(0, 0, 0, 1), value=0.0)
      (1): Conv2d(100, 100, kernel_size=(2, 1), stride=(1, 1))
      (2): Softmax(dim=2)
    )
    (dense_layer_conv2): Sequential(
      (0): ZeroPad2d(padding=(0, 0, 0, 1), value=0.0)
      (1): Conv2d(200, 100, kernel_size=(2, 1), stride=(1, 1))
      (2): Softmax(dim=2)
    )
    (dense_layer_conv3): Sequential(
      (0): ZeroPad2d(padding=(0, 0, 0, 1), value=0.0)
      (1): Conv2d(200, 100, kernel_size=(2, 1), stride=(1, 1))
      (2): Softmax(dim=2)
    )
    (dense_layer_conv4): Sequential(
      (0): ZeroPad2d(padding=(0, 0, 0, 1), value=0.0)
      (1): Conv2d(200, 100, kernel_size=(2, 1), stride=(1, 1))
      (2): Softmax(dim=2)
    )
    (activation_layer0): Sequential(
      (0): BatchNorm2d(100, eps=1e-05, momentum=0.1, affine=True, track_running_stats=True)
      (1): ReLU()
    )
    (activation_layer1): Sequential(
      (0): BatchNorm2d(200, eps=1e-05, momentum=0.1, affine=True, track_running_stats=True)
      (1): ReLU()
    )
    (activation_layer2): Sequential(
      (0): BatchNorm2d(200, eps=1e-05, momentum=0.1, affine=True, track_running_stats=True)
      (1): ReLU()
    )
    (activation_layer3): Sequential(
      (0): BatchNorm2d(200, eps=1e-05, momentum=0.1, affine=True, track_running_stats=True)
      (1): ReLU()
    )
    (scale_attention): Sequential(
      (0): Conv2d(100, 1, kernel_size=(500, 1), stride=(1, 1))
      (1): Softmax(dim=2)
    )
    (dropout): Dropout(p=0.9, inplace=False)
    (fcLayer0): Sequential(
      (0): Linear(in_features=50000, out_features=500, bias=True)
      (1): Dropout(p=0.9, inplace=False)
      (2): ReLU()
      (3): Linear(in_features=500, out_features=50, bias=True)
    )
    (fcLayer1): Sequential(
      (0): Linear(in_features=50000, out_features=500, bias=True)
      (1): Dropout(p=0.9, inplace=False)
      (2): ReLU()
      (3): Linear(in_features=500, out_features=50, bias=True)
    )
    (fcLayer2): Sequential(
      (0): Linear(in_features=50000, out_features=500, bias=True)
      (1): Dropout(p=0.9, inplace=False)
      (2): ReLU()
      (3): Linear(in_features=500, out_features=50, bias=True)
    )
    (fcLayer3): Sequential(
      (0): Linear(in_features=50000, out_features=500, bias=True)
      (1): Dropout(p=0.9, inplace=False)
      (2): ReLU()
      (3): Linear(in_features=500, out_features=50, bias=True)
    )
    (fcLayer4): Sequential(
      (0): Linear(in_features=50000, out_features=500, bias=True)
      (1): Dropout(p=0.9, inplace=False)
      (2): ReLU()
      (3): Linear(in_features=500, out_features=50, bias=True)
    )
  ), weights = ((100, 1, 1, 50), (100,), (100, 100, 2, 1), (100,), (100, 200, 2, 1), (100,), (100, 200, 2, 1), (100,), (100, 200, 2, 1), (100,), (100,), (100,), (200,), (200,), (200,), (200,), (200,), (200,), (1, 100, 500, 1), (1,), (500, 50000), (500,), (50, 500), (50,), (500, 50000), (500,), (50, 500), (50,), (500, 50000), (500,), (50, 500), (50,), (500, 50000), (500,), (50, 500), (50,), (500, 50000), (500,), (50, 500), (50,)), parameters = 125,324,651 (Trainable)
  (item_net): DenseNet(
    (dense_layer_conv0): Conv2d(1, 100, kernel_size=(1, 50), stride=(1, 1))
    (dense_layer_conv1): Sequential(
      (0): ZeroPad2d(padding=(0, 0, 0, 1), value=0.0)
      (1): Conv2d(100, 100, kernel_size=(2, 1), stride=(1, 1))
      (2): Softmax(dim=2)
    )
    (dense_layer_conv2): Sequential(
      (0): ZeroPad2d(padding=(0, 0, 0, 1), value=0.0)
      (1): Conv2d(200, 100, kernel_size=(2, 1), stride=(1, 1))
      (2): Softmax(dim=2)
    )
    (dense_layer_conv3): Sequential(
      (0): ZeroPad2d(padding=(0, 0, 0, 1), value=0.0)
      (1): Conv2d(200, 100, kernel_size=(2, 1), stride=(1, 1))
      (2): Softmax(dim=2)
    )
    (dense_layer_conv4): Sequential(
      (0): ZeroPad2d(padding=(0, 0, 0, 1), value=0.0)
      (1): Conv2d(200, 100, kernel_size=(2, 1), stride=(1, 1))
      (2): Softmax(dim=2)
    )
    (activation_layer0): Sequential(
      (0): BatchNorm2d(100, eps=1e-05, momentum=0.1, affine=True, track_running_stats=True)
      (1): ReLU()
    )
    (activation_layer1): Sequential(
      (0): BatchNorm2d(200, eps=1e-05, momentum=0.1, affine=True, track_running_stats=True)
      (1): ReLU()
    )
    (activation_layer2): Sequential(
      (0): BatchNorm2d(200, eps=1e-05, momentum=0.1, affine=True, track_running_stats=True)
      (1): ReLU()
    )
    (activation_layer3): Sequential(
      (0): BatchNorm2d(200, eps=1e-05, momentum=0.1, affine=True, track_running_stats=True)
      (1): ReLU()
    )
    (scale_attention): Sequential(
      (0): Conv2d(100, 1, kernel_size=(500, 1), stride=(1, 1))
      (1): Softmax(dim=2)
    )
    (dropout): Dropout(p=0.9, inplace=False)
    (fcLayer0): Sequential(
      (0): Linear(in_features=50000, out_features=500, bias=True)
      (1): Dropout(p=0.9, inplace=False)
      (2): ReLU()
      (3): Linear(in_features=500, out_features=50, bias=True)
    )
    (fcLayer1): Sequential(
      (0): Linear(in_features=50000, out_features=500, bias=True)
      (1): Dropout(p=0.9, inplace=False)
      (2): ReLU()
      (3): Linear(in_features=500, out_features=50, bias=True)
    )
    (fcLayer2): Sequential(
      (0): Linear(in_features=50000, out_features=500, bias=True)
      (1): Dropout(p=0.9, inplace=False)
      (2): ReLU()
      (3): Linear(in_features=500, out_features=50, bias=True)
    )
    (fcLayer3): Sequential(
      (0): Linear(in_features=50000, out_features=500, bias=True)
      (1): Dropout(p=0.9, inplace=False)
      (2): ReLU()
      (3): Linear(in_features=500, out_features=50, bias=True)
    )
    (fcLayer4): Sequential(
      (0): Linear(in_features=50000, out_features=500, bias=True)
      (1): Dropout(p=0.9, inplace=False)
      (2): ReLU()
      (3): Linear(in_features=500, out_features=50, bias=True)
    )
  ), weights = ((100, 1, 1, 50), (100,), (100, 100, 2, 1), (100,), (100, 200, 2, 1), (100,), (100, 200, 2, 1), (100,), (100, 200, 2, 1), (100,), (100,), (100,), (200,), (200,), (200,), (200,), (200,), (200,), (1, 100, 500, 1), (1,), (500, 50000), (500,), (50, 500), (50,), (500, 50000), (500,), (50, 500), (50,), (500, 50000), (500,), (50, 500), (50,), (500, 50000), (500,), (50, 500), (50,), (500, 50000), (500,), (50, 500), (50,)), parameters = 125,324,651 (Trainable)
  (DenseCNN_RatingPred): DenseCNN_RatingPred(
    (uid_userOffset): Embedding(77930, 1)
    (iid_itemOffset): Embedding(59172, 1)
    (globalOffset): Parameter(1,)
  ), weights = ((1,), (77930, 1), (59172, 1)), parameters = 137,103 (Trainable)
)
========================================================================================================================
