…
Pretrained word embeddings loaded! [wid_wEmbed: (43949, 100)]

Initialization Complete.. Elapsed Time: 6.37s (0.11 minute)

Train/Dev/Test splits loaded! |TRAIN|: 80,000, |DEV|: 150, |TEST|: 166
Train/Dev/Test splits loaded! Elapsed Time: 6.42s (0.11 minute)

Performing initial evaluation for VALIDATION set..
[Initial] [Dev]  MSE: 19.14315, MAE: 4.24913

Performing initial evaluation for TESTING set..
[Initial] [Test] MSE: 19.90055, MAE: 4.34664

Initial Evaluation Complete.. Elapsed Time: 6.62s (0.11 minute)

Optimizer: Adam, Loss Function: MSELoss

Model Size: 75,484,515
# of Trainable Parameters: 2,538,615
DAttn (
  (uid_userDoc): Embedding(77930, 500), weights = ((77930, 500),), parameters = 38,965,000
  (iid_itemDoc): Embedding(59172, 500), weights = ((59172, 500),), parameters = 29,586,000
  (wid_wEmbed): Embedding(43949, 100), weights = ((43949, 100),), parameters = 4,394,900
  (user_net): Net(
    (localAttentionLayer): LocalAttention(
      (attention_layer): Sequential(
        (0): Conv2d(1, 1, kernel_size=(3, 100), stride=(1, 1), padding=(1, 0))
        (1): Sigmoid()
      )
      (cnn): Sequential(
        (0): Conv2d(1, 1, kernel_size=(1, 100), stride=(1, 1))
        (1): Tanh()
      )
      (fcLayer): Sequential(
        (0): Linear(in_features=500, out_features=500, bias=True)
        (1): Dropout(p=0.9, inplace=False)
        (2): ReLU()
        (3): Linear(in_features=500, out_features=50, bias=True)
      )
    )
    (globalAttentionLayer): GlobalAttention(
      (attention_layer): Sequential(
        (0): Conv2d(1, 1, kernel_size=(500, 100), stride=(1, 1))
        (1): Sigmoid()
      )
      (convs): ModuleList(
        (0): Conv2d(1, 1, kernel_size=(2, 100), stride=(1, 1))
        (1): Conv2d(1, 1, kernel_size=(3, 100), stride=(1, 1))
        (2): Conv2d(1, 1, kernel_size=(4, 100), stride=(1, 1))
      )
      (fcLayers): ModuleList(
        (0): Sequential(
          (0): Linear(in_features=499, out_features=500, bias=True)
          (1): Dropout(p=0.9, inplace=False)
          (2): ReLU()
          (3): Linear(in_features=500, out_features=50, bias=True)
        )
        (1): Sequential(
          (0): Linear(in_features=498, out_features=500, bias=True)
          (1): Dropout(p=0.9, inplace=False)
          (2): ReLU()
          (3): Linear(in_features=500, out_features=50, bias=True)
        )
        (2): Sequential(
          (0): Linear(in_features=497, out_features=500, bias=True)
          (1): Dropout(p=0.9, inplace=False)
          (2): ReLU()
          (3): Linear(in_features=500, out_features=50, bias=True)
        )
      )
    )
    (fcLayer): Sequential(
      (0): Linear(in_features=200, out_features=200, bias=True)
      (1): Dropout(p=0.9, inplace=False)
      (2): ReLU()
      (3): Linear(in_features=200, out_features=50, bias=True)
    )
    (dropout): Dropout(p=0.9, inplace=False)
  ), weights = ((1, 1, 3, 100), (1,), (1, 1, 1, 100), (1,), (500, 500), (500,), (50, 500), (50,), (1, 1, 500, 100), (1,), (1, 1, 2, 100), (1,), (1, 1, 3, 100), (1,), (1, 1, 4, 100), (1,), (500, 499), (500,), (50, 500), (50,), (500, 498), (500,), (50, 500), (50,), (500, 497), (500,), (50, 500), (50,), (200, 200), (200,), (50, 200), (50,)), parameters = 1,200,756 (Trainable)
  (item_net): Net(
    (localAttentionLayer): LocalAttention(
      (attention_layer): Sequential(
        (0): Conv2d(1, 1, kernel_size=(3, 100), stride=(1, 1), padding=(1, 0))
        (1): Sigmoid()
      )
      (cnn): Sequential(
        (0): Conv2d(1, 1, kernel_size=(1, 100), stride=(1, 1))
        (1): Tanh()
      )
      (fcLayer): Sequential(
        (0): Linear(in_features=500, out_features=500, bias=True)
        (1): Dropout(p=0.9, inplace=False)
        (2): ReLU()
        (3): Linear(in_features=500, out_features=50, bias=True)
      )
    )
    (globalAttentionLayer): GlobalAttention(
      (attention_layer): Sequential(
        (0): Conv2d(1, 1, kernel_size=(500, 100), stride=(1, 1))
        (1): Sigmoid()
      )
      (convs): ModuleList(
        (0): Conv2d(1, 1, kernel_size=(2, 100), stride=(1, 1))
        (1): Conv2d(1, 1, kernel_size=(3, 100), stride=(1, 1))
        (2): Conv2d(1, 1, kernel_size=(4, 100), stride=(1, 1))
      )
      (fcLayers): ModuleList(
        (0): Sequential(
          (0): Linear(in_features=499, out_features=500, bias=True)
          (1): Dropout(p=0.9, inplace=False)
          (2): ReLU()
          (3): Linear(in_features=500, out_features=50, bias=True)
        )
        (1): Sequential(
          (0): Linear(in_features=498, out_features=500, bias=True)
          (1): Dropout(p=0.9, inplace=False)
          (2): ReLU()
          (3): Linear(in_features=500, out_features=50, bias=True)
        )
        (2): Sequential(
          (0): Linear(in_features=497, out_features=500, bias=True)
          (1): Dropout(p=0.9, inplace=False)
          (2): ReLU()
          (3): Linear(in_features=500, out_features=50, bias=True)
        )
      )
    )
    (fcLayer): Sequential(
      (0): Linear(in_features=200, out_features=200, bias=True)
      (1): Dropout(p=0.9, inplace=False)
      (2): ReLU()
      (3): Linear(in_features=200, out_features=50, bias=True)
    )
    (dropout): Dropout(p=0.9, inplace=False)
  ), weights = ((1, 1, 3, 100), (1,), (1, 1, 1, 100), (1,), (500, 500), (500,), (50, 500), (50,), (1, 1, 500, 100), (1,), (1, 1, 2, 100), (1,), (1, 1, 3, 100), (1,), (1, 1, 4, 100), (1,), (500, 499), (500,), (50, 500), (50,), (500, 498), (500,), (50, 500), (50,), (500, 497), (500,), (50, 500), (50,), (200, 200), (200,), (50, 200), (50,)), parameters = 1,200,756 (Trainable)
  (DAttn_RatingPred): DAttn_RatingPred(
    (uid_userOffset): Embedding(77930, 1)
    (iid_itemOffset): Embedding(59172, 1)
    (globalOffset): Parameter(1,)
  ), weights = ((1,), (77930, 1), (59172, 1)), parameters = 137,103 (Trainable)
)
========================================================================================================================

[Epoch 1/10] Training Loss: 2.84385	Elapsed Time: 33.68s (0:00:33)
[Epoch 1] [Dev]  MSE: 1.12253, MAE: 0.87470
[Epoch 1] [Test] MSE: 1.09779, MAE: 0.86492
…
