…
Pretrained word embeddings loaded! [wid_wEmbed: (43949, 100)]

Initialization Complete.. Elapsed Time: 2.09s (0.03 minute)

Train/Dev/Test splits loaded! |TRAIN|: 80,000, |DEV|: 150, |TEST|: 166
Train/Dev/Test splits loaded! Elapsed Time: 2.11s (0.04 minute)

Performing initial evaluation for VALIDATION set..
[Initial] [Dev]  MSE: 16.79168, MAE: 3.88288

Performing initial evaluation for TESTING set..
[Initial] [Test] MSE: 16.98733, MAE: 3.95020

Initial Evaluation Complete.. Elapsed Time: 2.32s (0.04 minute)

Optimizer: Adam, Loss Function: MSELoss

Model Size: 75,237,919
# of Trainable Parameters: 2,292,019
DAttn (
  (uid_userDoc): Embedding(77930, 500), weights = ((77930, 500),), parameters = 38,965,000
  (iid_itemDoc): Embedding(59172, 500), weights = ((59172, 500),), parameters = 29,586,000
  (wid_wEmbed): Embedding(43949, 100), weights = ((43949, 100),), parameters = 4,394,900
  (user_net): Net(
    (localAttentionLayer): LocalAttention(
      (attention_layers): ModuleList(
        (0): Sequential(
          (0): Conv2d(1, 1, kernel_size=(3, 100), stride=(1, 1), padding=(1, 0))
          (1): Sigmoid()
        )
        (1): Sequential(
          (0): Conv2d(1, 1, kernel_size=(5, 100), stride=(1, 1), padding=(2, 0))
          (1): Sigmoid()
        )
        (2): Sequential(
          (0): Conv2d(1, 1, kernel_size=(7, 100), stride=(1, 1), padding=(3, 0))
          (1): Sigmoid()
        )
      )
      (convs): ModuleList(
        (0): Sequential(
          (0): Conv2d(1, 1, kernel_size=(1, 100), stride=(1, 1))
          (1): Tanh()
        )
        (1): Sequential(
          (0): Conv2d(1, 1, kernel_size=(1, 100), stride=(1, 1))
          (1): Tanh()
        )
        (2): Sequential(
          (0): Conv2d(1, 1, kernel_size=(1, 100), stride=(1, 1))
          (1): Tanh()
        )
      )
    )
    (globalAttentionLayer): GlobalAttention(
      (attention_layer): Sequential(
        (0): Conv2d(1, 1, kernel_size=(500, 100), stride=(1, 1))
        (1): Sigmoid()
      )
      (cnn): Sequential(
        (0): Conv2d(1, 1, kernel_size=(1, 100), stride=(1, 1))
        (1): Tanh()
      )
    )
    (fcLayer): Sequential(
      (0): Linear(in_features=2000, out_features=500, bias=True)
      (1): Dropout(p=0.9, inplace=False)
      (2): ReLU()
      (3): Linear(in_features=500, out_features=50, bias=True)
    )
    (dropout): Dropout(p=0.9, inplace=False)
  ), weights = ((1, 1, 3, 100), (1,), (1, 1, 5, 100), (1,), (1, 1, 7, 100), (1,), (1, 1, 1, 100), (1,), (1, 1, 1, 100), (1,), (1, 1, 1, 100), (1,), (1, 1, 500, 100), (1,), (1, 1, 1, 100), (1,), (500, 2000), (500,), (50, 500), (50,)), parameters = 1,077,458 (Trainable)
  (item_net): Net(
    (localAttentionLayer): LocalAttention(
      (attention_layers): ModuleList(
        (0): Sequential(
          (0): Conv2d(1, 1, kernel_size=(3, 100), stride=(1, 1), padding=(1, 0))
          (1): Sigmoid()
        )
        (1): Sequential(
          (0): Conv2d(1, 1, kernel_size=(5, 100), stride=(1, 1), padding=(2, 0))
          (1): Sigmoid()
        )
        (2): Sequential(
          (0): Conv2d(1, 1, kernel_size=(7, 100), stride=(1, 1), padding=(3, 0))
          (1): Sigmoid()
        )
      )
      (convs): ModuleList(
        (0): Sequential(
          (0): Conv2d(1, 1, kernel_size=(1, 100), stride=(1, 1))
          (1): Tanh()
        )
        (1): Sequential(
          (0): Conv2d(1, 1, kernel_size=(1, 100), stride=(1, 1))
          (1): Tanh()
        )
        (2): Sequential(
          (0): Conv2d(1, 1, kernel_size=(1, 100), stride=(1, 1))
          (1): Tanh()
        )
      )
    )
    (globalAttentionLayer): GlobalAttention(
      (attention_layer): Sequential(
        (0): Conv2d(1, 1, kernel_size=(500, 100), stride=(1, 1))
        (1): Sigmoid()
      )
      (cnn): Sequential(
        (0): Conv2d(1, 1, kernel_size=(1, 100), stride=(1, 1))
        (1): Tanh()
      )
    )
    (fcLayer): Sequential(
      (0): Linear(in_features=2000, out_features=500, bias=True)
      (1): Dropout(p=0.9, inplace=False)
      (2): ReLU()
      (3): Linear(in_features=500, out_features=50, bias=True)
    )
    (dropout): Dropout(p=0.9, inplace=False)
  ), weights = ((1, 1, 3, 100), (1,), (1, 1, 5, 100), (1,), (1, 1, 7, 100), (1,), (1, 1, 1, 100), (1,), (1, 1, 1, 100), (1,), (1, 1, 1, 100), (1,), (1, 1, 500, 100), (1,), (1, 1, 1, 100), (1,), (500, 2000), (500,), (50, 500), (50,)), parameters = 1,077,458 (Trainable)
  (DAttn_RatingPred): DAttn_RatingPred(
    (uid_userOffset): Embedding(77930, 1)
    (iid_itemOffset): Embedding(59172, 1)
    (globalOffset): Parameter(1,)
  ), weights = ((1,), (77930, 1), (59172, 1)), parameters = 137,103 (Trainable)
)
========================================================================================================================

[Epoch 1/10] Training Loss: 27.65523	Elapsed Time: 35.90s (0:00:35)
[Epoch 1] [Dev]  MSE: 5.31064, MAE: 2.13590
[Epoch 1] [Test] MSE: 5.70463, MAE: 2.24655
…
