…
Pretrained word embeddings loaded! [wid_wEmbed: (43949, 300)]

Initialization Complete.. Elapsed Time: 2.16s (0.04 minute)

Train/Dev/Test splits loaded! |TRAIN|: 80,000, |DEV|: 150, |TEST|: 166
Train/Dev/Test splits loaded! Elapsed Time: 2.18s (0.04 minute)

Performing initial evaluation for VALIDATION set..
[Initial] [Dev]  MSE: 18.98943, MAE: 4.23138

Performing initial evaluation for TESTING set..
[Initial] [Test] MSE: 19.76138, MAE: 4.33015

Initial Evaluation Complete.. Elapsed Time: 2.40s (0.04 minute)

Optimizer: Adam, Loss Function: MSELoss

Model Size: 83,133,911
# of Trainable Parameters: 1,398,211
DAttn (
  (uid_userDoc): Embedding(77930, 500), weights = ((77930, 500),), parameters = 38,965,000
  (iid_itemDoc): Embedding(59172, 500), weights = ((59172, 500),), parameters = 29,586,000
  (wid_wEmbed): Embedding(43949, 300), weights = ((43949, 300),), parameters = 13,184,700
  (user_net): Net(
    (localAttentionLayer): LocalAttention(
      (attention_layers): ModuleList(
        (0): Sequential(
          (0): Conv2d(1, 1, kernel_size=(3, 300), stride=(1, 1), padding=(1, 0))
          (1): Softmax(dim=2)
        )
        (1): Sequential(
          (0): Conv2d(1, 1, kernel_size=(5, 300), stride=(1, 1), padding=(2, 0))
          (1): Softmax(dim=2)
        )
        (2): Sequential(
          (0): Conv2d(1, 1, kernel_size=(7, 300), stride=(1, 1), padding=(3, 0))
          (1): Softmax(dim=2)
        )
      )
    )
    (globalAttentionLayer): GlobalAttention(
      (attention_layer): Sequential(
        (0): Conv2d(1, 1, kernel_size=(500, 1), stride=(1, 1))
      )
    )
    (fcLayer): Sequential(
      (0): Linear(in_features=1200, out_features=500, bias=True)
      (1): Dropout(p=0.9, inplace=False)
      (2): ReLU()
      (3): Linear(in_features=500, out_features=50, bias=True)
    )
    (dropout): Dropout(p=0.9, inplace=False)
  ), weights = ((1, 1, 3, 300), (1,), (1, 1, 5, 300), (1,), (1, 1, 7, 300), (1,), (1, 1, 500, 1), (1,), (500, 1200), (500,), (50, 500), (50,)), parameters = 630,554 (Trainable)
  (item_net): Net(
    (localAttentionLayer): LocalAttention(
      (attention_layers): ModuleList(
        (0): Sequential(
          (0): Conv2d(1, 1, kernel_size=(3, 300), stride=(1, 1), padding=(1, 0))
          (1): Softmax(dim=2)
        )
        (1): Sequential(
          (0): Conv2d(1, 1, kernel_size=(5, 300), stride=(1, 1), padding=(2, 0))
          (1): Softmax(dim=2)
        )
        (2): Sequential(
          (0): Conv2d(1, 1, kernel_size=(7, 300), stride=(1, 1), padding=(3, 0))
          (1): Softmax(dim=2)
        )
      )
    )
    (globalAttentionLayer): GlobalAttention(
      (attention_layer): Sequential(
        (0): Conv2d(1, 1, kernel_size=(500, 1), stride=(1, 1))
      )
    )
    (fcLayer): Sequential(
      (0): Linear(in_features=1200, out_features=500, bias=True)
      (1): Dropout(p=0.9, inplace=False)
      (2): ReLU()
      (3): Linear(in_features=500, out_features=50, bias=True)
    )
    (dropout): Dropout(p=0.9, inplace=False)
  ), weights = ((1, 1, 3, 300), (1,), (1, 1, 5, 300), (1,), (1, 1, 7, 300), (1,), (1, 1, 500, 1), (1,), (500, 1200), (500,), (50, 500), (50,)), parameters = 630,554 (Trainable)
  (DAttn_RatingPred): DAttn_RatingPred(
    (uid_userOffset): Embedding(77930, 1)
    (iid_itemOffset): Embedding(59172, 1)
    (globalOffset): Parameter(1,)
  ), weights = ((1,), (77930, 1), (59172, 1)), parameters = 137,103 (Trainable)
)
========================================================================================================================

[Epoch 1/20] Training Loss: 3.28432	Elapsed Time: 40.87s (0:00:40)
[Epoch 1] [Dev]  MSE: 1.34964, MAE: 0.99866
[Epoch 1] [Test] MSE: 1.39212, MAE: 1.03048
…
