…
Pretrained word embeddings loaded! [wid_wEmbed: (43949, 300)]

Initialization Complete.. Elapsed Time: 2.11s (0.04 minute)

Train/Dev/Test splits loaded! |TRAIN|: 80,000, |DEV|: 150, |TEST|: 166
Train/Dev/Test splits loaded! Elapsed Time: 2.13s (0.04 minute)

Performing initial evaluation for VALIDATION set..
[Initial] [Dev]  MSE: 18.38625, MAE: 4.15899

Performing initial evaluation for TESTING set..
[Initial] [Test] MSE: 19.12313, MAE: 4.25634

Initial Evaluation Complete.. Elapsed Time: 2.33s (0.04 minute)

Optimizer: Adam, Loss Function: MSELoss

Model Size: 82,284,391
# of Trainable Parameters: 548,691
DAttn (
  (uid_userDoc): Embedding(77930, 500), weights = ((77930, 500),), parameters = 38,965,000
  (iid_itemDoc): Embedding(59172, 500), weights = ((59172, 500),), parameters = 29,586,000
  (wid_wEmbed): Embedding(43949, 300), weights = ((43949, 300),), parameters = 13,184,700
  (DAttn_RatingPred): DAttn_RatingPred(
    (uid_userOffset): Embedding(77930, 1)
    (iid_itemOffset): Embedding(59172, 1)
    (globalOffset): Parameter(1,)
  ), weights = ((1,), (77930, 1), (59172, 1)), parameters = 137,103 (Trainable)
  (localAttentionLayer_user): LocalAttention(
    (attention_layer1): Sequential(
      (0): Conv2d(1, 1, kernel_size=(3, 1), stride=(1, 1))
      (1): Softmax(dim=2)
    )
    (attention_layer2): Sequential(
      (0): Conv2d(1, 1, kernel_size=(5, 1), stride=(1, 1))
      (1): Softmax(dim=2)
    )
    (attention_layer3): Sequential(
      (0): Conv2d(1, 1, kernel_size=(7, 1), stride=(1, 1))
      (1): Softmax(dim=2)
    )
  ), weights = ((1, 1, 3, 1), (1,), (1, 1, 5, 1), (1,), (1, 1, 7, 1), (1,)), parameters = 18 (Trainable)
  (globalAttentionLayer_user): GlobalAttention(
    (attention_layer): Sequential(
      (0): Conv2d(1, 1, kernel_size=(500, 1), stride=(1, 1))
      (1): Sigmoid()
    )
  ), weights = ((1, 1, 500, 1), (1,)), parameters = 501 (Trainable)
  (localAttentionLayer_item): LocalAttention(
    (attention_layer1): Sequential(
      (0): Conv2d(1, 1, kernel_size=(3, 1), stride=(1, 1))
      (1): Softmax(dim=2)
    )
    (attention_layer2): Sequential(
      (0): Conv2d(1, 1, kernel_size=(5, 1), stride=(1, 1))
      (1): Softmax(dim=2)
    )
    (attention_layer3): Sequential(
      (0): Conv2d(1, 1, kernel_size=(7, 1), stride=(1, 1))
      (1): Softmax(dim=2)
    )
  ), weights = ((1, 1, 3, 1), (1,), (1, 1, 5, 1), (1,), (1, 1, 7, 1), (1,)), parameters = 18 (Trainable)
  (globalAttentionLayer_item): GlobalAttention(
    (attention_layer): Sequential(
      (0): Conv2d(1, 1, kernel_size=(500, 1), stride=(1, 1))
      (1): Sigmoid()
    )
  ), weights = ((1, 1, 500, 1), (1,)), parameters = 501 (Trainable)
  (fcLayer): Sequential (
    (0): Linear(in_features=2000, out_features=200, bias=True), weights = ((200, 2000), (200,)), parameters = 400,200 (Trainable)
    (1): ReLU(), weights = (), parameters = 0
    (2): Linear(in_features=200, out_features=50, bias=True), weights = ((50, 200), (50,)), parameters = 10,050 (Trainable)
  ), weights = ((200, 2000), (200,), (50, 200), (50,)), parameters = 410,250 (Trainable)
)
========================================================================================================================

[Epoch 1/20] Training Loss: 1.35818	Elapsed Time: 11.44s (0:00:11)
[Epoch 1] [Dev]  MSE: 1.24064, MAE: 0.87879
…
