…
Train/Dev/Test splits loaded! Elapsed Time: 79.43s (1.32 minutes)

Performing initial evaluation for VALIDATION set..
[Initial] [Dev]  MSE: 23293.62264, MAE: 122.87087

Performing initial evaluation for TESTING set..
[Initial] [Test] MSE: 23322.12068, MAE: 122.62373

Initial Evaluation Complete.. Elapsed Time: 85.70s (1.43 minutes)

Parameters with L2 Regularization (Regularization Strength: 1e-06):
VANRA_RatingPred.uid_userOffset.weight, VANRA_RatingPred.iid_itemOffset.weight

Optimizer: Adam, Loss Function: MSELoss

Model Size: 1,021,722,131
# of Trainable Parameters: 1,301,531
VANRA (
  (uid_userDoc): Embedding(669835, 500), weights = ((669835, 500),), parameters = 334,917,500
  (iid_itemDoc): Embedding(335585, 500), weights = ((335585, 500),), parameters = 167,792,500
  (wid_wEmbed): Embedding(50002, 300), weights = ((50002, 300),), parameters = 15,000,600
  (uid_userVis): Embedding(669835, 500), weights = ((669835, 500),), parameters = 334,917,500
  (iid_itemVis): Embedding(335585, 500), weights = ((335585, 500),), parameters = 167,792,500
  (shared_ANR_ARL): ANR_ARL(
    (aspEmbed): Embedding(5, 30)
    (aspProj): Parameter(5, 300, 10)
  ), weights = ((5, 300, 10), (5, 30)), parameters = 15,150 (Trainable)
  (ANR_AIE): ANR_AIE(  (W_a): Parameter(10, 10)
    (W_u): Parameter(50, 10)
    (w_hu): Parameter(50, 1)
    (W_i): Parameter(50, 10)
    (w_hi): Parameter(50, 1)
  ), weights = ((10, 10), (50, 10), (50, 1), (50, 10), (50, 1)), parameters = 1,200 (Trainable)
  (VANRA_VRL): VANRA_VRL(
    (localAttentionLayer_user): LocalAttention(
      (attention_layer): Sequential(
        (0): Conv2d(1, 1, kernel_size=(3, 1), stride=(1, 1))
        (1): Sigmoid()
      )
      (cnn): Sequential(
        (0): Conv2d(1, 200, kernel_size=(1, 1), stride=(1, 1))
        (1): ReLU()
        (2): MaxPool2d(kernel_size=(500, 1), stride=(500, 1), padding=0, dilation=1, ceil_mode=False)
      )
    )
    (globalAttentionLayer_user): GlobalAttention(
      (attention_layer): Sequential(
        (0): Conv2d(1, 1, kernel_size=(500, 1), stride=(1, 1))
        (1): Sigmoid()
      )
      (cnn_1): Sequential(
        (0): Conv2d(1, 100, kernel_size=(2, 1), stride=(1, 1))
        (1): ReLU()
        (2): MaxPool2d(kernel_size=(499, 1), stride=(499, 1), padding=0, dilation=1, ceil_mode=False)
      )
      (cnn_2): Sequential(
        (0): Conv2d(1, 100, kernel_size=(3, 1), stride=(1, 1))
        (1): ReLU()
        (2): MaxPool2d(kernel_size=(498, 1), stride=(498, 1), padding=0, dilation=1, ceil_mode=False)
      )
      (cnn_3): Sequential(
        (0): Conv2d(1, 100, kernel_size=(4, 1), stride=(1, 1))
        (1): ReLU()
        (2): MaxPool2d(kernel_size=(497, 1), stride=(497, 1), padding=0, dilation=1, ceil_mode=False)
      )
    )
    (localAttentionLayer_item): LocalAttention(
      (attention_layer): Sequential(
        (0): Conv2d(1, 1, kernel_size=(3, 1), stride=(1, 1))
        (1): Sigmoid()
      )
      (cnn): Sequential(
        (0): Conv2d(1, 200, kernel_size=(1, 1), stride=(1, 1))
        (1): ReLU()
        (2): MaxPool2d(kernel_size=(500, 1), stride=(500, 1), padding=0, dilation=1, ceil_mode=False)
      )
    )
    (globalAttentionLayer_item): GlobalAttention(
      (attention_layer): Sequential(
        (0): Conv2d(1, 1, kernel_size=(500, 1), stride=(1, 1))
        (1): Sigmoid()
      )
      (cnn_1): Sequential(
        (0): Conv2d(1, 100, kernel_size=(2, 1), stride=(1, 1))
        (1): ReLU()
        (2): MaxPool2d(kernel_size=(499, 1), stride=(499, 1), padding=0, dilation=1, ceil_mode=False)
      )
      (cnn_2): Sequential(
        (0): Conv2d(1, 100, kernel_size=(3, 1), stride=(1, 1))
        (1): ReLU()
        (2): MaxPool2d(kernel_size=(498, 1), stride=(498, 1), padding=0, dilation=1, ceil_mode=False)
      )
      (cnn_3): Sequential(
        (0): Conv2d(1, 100, kernel_size=(4, 1), stride=(1, 1))
        (1): ReLU()
        (2): MaxPool2d(kernel_size=(497, 1), stride=(497, 1), padding=0, dilation=1, ceil_mode=False)
      )
    )
    (fcLayer): Sequential(
      (0): Linear(in_features=500, out_features=500, bias=True)
      (1): Dropout(p=0.5, inplace=False)
      (2): ReLU()
      (3): Linear(in_features=500, out_features=50, bias=True)
    )
  ), weights = ((1, 1, 3, 1), (1,), (200, 1, 1, 1), (200,), (1, 1, 500, 1), (1,), (100, 1, 2, 1), (100,), (100, 1, 3, 1), (100,), (100, 1, 4, 1), (100,), (1, 1, 3, 1), (1,), (200, 1, 1, 1), (200,), (1, 1, 500, 1), (1,), (100, 1, 2, 1), (100,), (100, 1, 3, 1), (100,), (100, 1, 4, 1), (100,), (500, 500), (500,), (50, 500), (50,)), parameters = 279,760 (Trainable)
  (VANRA_RatingPred): VANRA_RatingPred(
    (userAspRepDropout): Dropout(p=0.5, inplace=False)
    (itemAspRepDropout): Dropout(p=0.5, inplace=False)
    (uid_userOffset): Embedding(669835, 1)
    (iid_itemOffset): Embedding(335585, 1)
    (globalOffset): Parameter(1,)
  ), weights = ((1,), (669835, 1), (335585, 1)), parameters = 1,005,421 (Trainable)
)
========================================================================================================================

[Epoch 1/15] Training Loss: 931.38953	Elapsed Time: 503.81s (0:08:23)
[Epoch 1] [Dev]  MSE: 1.60892, MAE: 0.97349
[Epoch 1] [Test] MSE: 1.61753, MAE: 0.97655
…
